webapp/app/mnist.pth (torch, 319507 bytes, 4 tensors)

l1.weight f4 [100, 784]
00000000: 4de9 103d 7317 033d fc30 b13c fabf a2bc
00000010: 47b9 a83c 77bb 883c 9302 ceba a59b 82bb
00000020: 4c1b dcbc 258e aabb 6ea7 04bc 8ef9 0a3c
00000030: a79d 493d c535 943c 68bd 023c 9bb8 a6bc
00000040: a7c3 9fbc 6cfd 95bc 0310 9bbc 00ee 9fba
00000050: 77ec c93c c05a a0bc 7c0d a13c 988c f43c
00000060: a508 c6bc 6ead 36ba f0da 0b3d 37b3 94bc
00000070: ae1b a2bc 737f 05bd 3d4e 10bd 63f5 9dbc
00000080: fa1e 0e3d 6177 fb3c 8c82 853d f5ca 743d
00000090: ac85 843d 7bad a63d d1c5 973d db61 163d
000000a0: e27d 4d3d e02c 9e3d 8f19 323c d358 e43c
000000b0: 8e68 87bc f2a3 b73d 309a 0d3e d981 8a3d
000000c0: c909 d43d 41a4 763d dbef be3d e3b0 863c
000000d0: f87b ddbc 86b1 05bd 5c18 dabc 0174 61bb
000000e0: b1ad e03c ea53 083d a399 983a a1ab 09bd
000000f0: 036e 553d 371b cd3d 06d0 943d 84f9 f93d
00000100: 1950 143e 53c5 dc3d 2f8f 2f3e 890e 293e
00000110: 46f0 2d3e 55f4 e73d 925b 263e 82f2 fd3d
00000120: cb42 763d da2a 893d 12c5 b53d 9d6d 9f3d
00000130: b650 f13d 04f7 bc3d d3e7 113e 1df7 f03d
00000140: 60e8 0bba 7710 19bd 5c3b 503b c8ce e0bc
00000150: a579 37bc 97b2 263c 7426 6aba 7418 1d3d
00000160: b389 01bc 5b8b 973d 4d72 9a3d acb3 993d
00000170: 79f2 9a3d 5f1b 9f3d d8c9 963d 5490 003d
00000180: f1d8 bd3c 5b8c 5e3d 3159 4b3d 7fee 403d
00000190: 10eb a53c d73c 05bd 54c6 5e3c f322 cc3a
000001a0: 205b 6dbd ab2e 143d 1e98 1e3c 1bdb 953d
000001b0: 99e1 643d c635 43bc 0be7 2b3d 8ef2 5fbc
000001c0: 75d5 a63c 5d8a 66bd b512 08bd 5da2 a3bc
000001d0: feb6 173d bedf 5d3d 29a5 a43d af5d dc3c
000001e0: 349f 363d 028e ca3d 6b35 9b3d 3353 70bd
000001f0: 909b 12bd d52d 193d f9d3 2a3c 43ef ac3b
00000200: 6b51 9e3c caab 02bd c777 bcbc cacc cfba
00000210: c270 ff3c e902 073c c9cf 553c fef6 b83c
00000220: 07dd 9cbd a41c a1bc 5cf0 893d cb70 443d
00000230: 231d d73c 7393 10bc 8bda 913d 939d 3dbd
00000240: 72a2 103d 18ac 09bc fb37 503d b272 843d
00000250: 4b0c ef3d 6725 2c3d e2e1 63bd 3c42 e5bd
00000260: c507 34bd 0c13 c9bc 60e4 e23c 3f67 e73c
00000270: c0f9 54bc dcb2 69bd 2628 6cbd 032c afbd
00000280: d0d3 91bd d59c af3c 140d 043d eb9d 833d
00000290: f250 2c3d 6164 5cbc ae9d 2d3c d2ff ac3d
000002a0: 5c26 f83c a7a2 a4bc 7ea1 8bbc f5d7 383d
000002b0: f3f4 ff3d daef c43d 2b52 5c3d daaf 093e
000002c0: ddc1 803d d807 20bb 3ea0 33bd 951e a2bd
000002d0: 9c5f 9abd cf92 23be 3b29 01be d871 edbd
000002e0: acdb 0cbe dde3 0abe 6465 47be ebdd 07be
000002f0: cd6c 05be fc3b fabc 9bff 6a3c 1e82 3d3d
00000300: 7943 163d 4022 353d a7aa fdbc 15a9 693d
00000310: 2abf 313c 660c d83d 011c 203d 3c04 b43d
00000320: bcc4 0a3e 77d3 963d f07f 5a3c 3ba1 e23d
00000330: b869 8f3a 8fd8 4c3c 3583 27bd fbd1 5dbd
00000340: 502a 3dbd 6f40 a8bd b53a f5bd 036d 1ebe
00000350: 09ea 17be 7938 02be caac e8bd 89f3 9fbd
00000360: b550 d9bd 5f49 60bd 0329 49bc a8b5 463d
00000370: 73d0 b23c 2e1a 8bbc 20f6 d63c 0da6 063d
00000380: bad4 e93b 9cf2 b03d 3005 d2bc 729a c93d
00000390: 8f1c ff3d eb83 853d 9465 303c b702 b43d
000003a0: 77d6 c83b 374d 563c c182 053d 129f abbb
000003b0: 42a4 27bd cb9c a0bd a411 f7bd 76eb 13be
000003c0: 9764 08be 6791 cbbd a122 babd 2da6 d9bd
000003d0: adc0 0bbd ecbf 9dbd 638e 93bc ccf4 3abd
000003e0: d840 5fbd 5213 86bd f6f3 b03b d4c6 453c
000003f0: 3646 1b3d 327d 5c3d 5702 173b 1fdb 703d
0.035378743 0.032004785 0.021629803 -0.019866932 0.02059616 0.016690953 -0.001571732 -0.0039858394
-0.026868485 -0.005204933 -0.008096559 0.00848235 0.049222615 0.018092046 0.007979728 -0.020351699
-0.019502474 -0.018309318 -0.018928533 -0.0012201667 0.024648888 -0.019574523 0.01965975 0.029852197
-0.024174044 -0.0006968592 0.034144342 -0.018151863 -0.01978859 -0.03259225 -0.035230864 -0.019282049
0.03469751 0.030696573 0.065190405 0.059763867 0.064708084 0.081385575 0.07410777 0.036714416
0.05016888 0.07723403 0.010870351 0.027874386 -0.016529348 0.08966817 0.13828349 0.06763048
0.10353429 0.06021524 0.093230926 0.016441768 -0.027036652 -0.032640003 -0.026622944 -0.003440142
0.027426573 0.03328315 0.0011642467 -0.033610944 0.05210687 0.100149564 0.0726624 0.122057945
0.1448368 0.10779824 0.17144464 0.16509451 0.16986188 0.113258995 0.16245869 0.1239977
0.060122292 0.066976264 0.08875479 0.07784579 0.117829725 0.09226802 0.1424859 0.11765883
-0.0005337056 -0.037369218 0.0031773662 -0.027442351 -0.011198436 0.010174415 -0.00089321216 0.0383534
-0.007906365 0.07399627 0.075413324 0.07504973 0.07565779 0.077688925 0.073627174 0.031387642
0.023174735 0.054333072 0.049645606 0.047102448 0.020253688 -0.032528725 0.01359709 0.001557438
-0.05794823 0.03617732 0.009679822 0.07317182 0.05587921 -0.011914676 0.041968387 -0.013668669
0.020365456 -0.056284297 -0.033220965 -0.019974882 0.03703975 0.054168455 0.08039314 0.02690014
0.04458542 0.09890367 0.07578548 -0.058673095 -0.035792887 0.037397224 0.010426515 0.0052775457
0.019325932 -0.031902112 -0.023006333 -0.0015853879 0.031181697 0.00824044 0.013050028 0.022578713
-0.07659345 -0.019666977 0.06735298 0.04795913 0.02625901 -0.008824217 0.07121762 -0.046292853
0.03531117 -0.008402847 0.050834637 0.06467189 0.116722666 0.042027857 -0.05563534 -0.11194274
-0.043952722 -0.024545215 0.027696788 0.028247474 -0.012998998 -0.05705534 -0.057655476 -0.085533164
-0.07120478 0.021437088 0.032239035 0.06426605 0.042069383 -0.013451667 0.010596676 0.08447231
0.030291729 -0.02009709 -0.017044779 0.045127828 0.12497892 0.096160606 0.0537893 0.13445988
0.062869765 -0.0024418738 -0.04385399 -0.07915989 -0.07537767 -0.15973972 -0.12613384 -0.115939796
-0.13755673 -0.13563485 -0.19472271 -0.13268249 -0.13029785 -0.03054618 0.014343168 0.046266668
0.03668544 0.044222116 -0.030965162 0.057046015 0.0108488 0.1054924 0.039089207 0.0878987
0.1355161 0.073645525 0.013336167 0.110659085 0.0010941541 0.0125028035 -0.040896613 -0.05415533
-0.04618293 -0.08215415 -0.11974088 -0.15471272 -0.14835371 -0.12716855 -0.11361082 -0.078101225
-0.10611097 -0.054757472 -0.012277844 0.048513085 0.021827912 -0.016980257 0.026240408 0.032873202
0.0071359547 0.08640024 -0.02563724 0.09843911 0.12456619 0.06519302 0.010766406 0.0878958
0.006129082 0.013079933 0.0325954 -0.0052374685 -0.040928133 -0.07842406 -0.120639116 -0.1444529
-0.13319622 -0.09939843 -0.09088636 -0.10627399 -0.034119297 -0.07702622 -0.018012231 -0.045643613
-0.0545052 -0.06546654 0.005400176 0.01207133 0.037908755 0.053830333 0.0023042166 0.05880272

l1.bias f4 [100]
00000000: f483 d63b 00de 833b f3db fd3c 727b 533e
00000010: 1135 043e 1ec9 cf3d 115a ca3c 2660 f9bb
00000020: 12c1 843c 5ca7 da3a 6d0e 0cbd 0a44 a5bc
00000030: 55d1 013e 0b5b 8d3d e8be 483d 1c0e f83c
00000040: 8fd7 be3d 4be6 01be af19 87bb f8b3 233d
00000050: 797d 0e3e 8e40 a1bd 3e69 233c 47ab be3d
00000060: 6e3a 4b3e 331e 2ebd 5577 453d 5aeb f4bc
00000070: 78c0 5d3c 23e6 453d 1586 293c 818e 313e
00000080: bfec eb3d 693a f63c 34aa 26bc 6c79 953d
00000090: c280 10be bf12 bf3c 689e 0f3e 9b1a babd
000000a0: f4e4 2a3d 67bd 2bbd 047d 513e 1c4b 97bd
000000b0: 7e02 8f3c af19 d93d 91b4 153e 4288 fbba
000000c0: 0f8b 17be a0a1 4f3d 4c6c 0ebd 6636 cd3d
000000d0: 4cef d6bd bbb4 973d 19aa 95bc 52b1 4bbd
000000e0: 063e 473e 5510 30bc 385f cebc 96ed c13c
000000f0: 7910 65bd 2725 483d d3fd f83d 7286 fe3d
00000100: 4c5d e43d d792 023e 98f3 123b 73f8 ae3d
00000110: 5858 d8bd 3fdb a5bc 4b8e 963d b191 45bd
00000120: dced c03c cdb8 4abd 571c 9a3d 228a 64bc
00000130: c54e 033e 829c d1bd f2f3 403e d084 8a3d
00000140: 59d3 a03d f1bb 1d3e a9ef 4e3d 14a8 083e
00000150: d244 383d 956f bf3d 5f50 1dbd 39d1 c6bd
00000160: 33c4 733c f12b 39bd 2827 ed3c 6141 4a3e
00000170: e4ff 1b3e 2b11 3e3d 2827 10bd a22a ab3d
00000180: 672a 4dbb 9631 d3bd 634f 80bc 3e03 e4bd
0.0065464918 0.004024267 0.030988669 0.2065256 0.12910868 0.10145782 0.02470115 -0.0076103387
0.016205344 0.0016681957 -0.034193445 -0.020174045 0.1267751 0.06902131 0.049010187 0.030280165
0.09318458 -0.12685506 -0.004122935 0.039966553 0.13915052 -0.07873641 0.009973822 0.09310012
0.19846508 -0.04250927 0.048209507 -0.02989738 0.013534658 0.04831518 0.010346909 0.17339517
0.11519765 0.030057149 -0.0101724155 0.0729855 -0.14111617 0.023324369 0.14025271 -0.09087106
0.041722253 -0.041928675 0.20457846 -0.07387373 0.017457243 0.10600602 0.14619662 -0.0019190388
-0.1479914 0.050691247 -0.03477125 0.10020141 -0.10494861 0.074075185 -0.018269585 -0.049729653
0.19457254 -0.010746081 -0.025191888 0.02367286 -0.055923913 0.048863556 0.12157788 0.12427987
0.111506075 0.12751327 0.0022423025 0.08543482 -0.10563725 -0.020246146 0.07351359 -0.048234645
0.02355092 -0.049492646 0.07524937 -0.013948949 0.12823017 -0.102349296 0.18843058 0.06763613
0.07852811 0.15403725 0.050521526 0.13345367 0.044987507 0.093474545 -0.038406726 -0.09707875
0.0148783205 -0.04520792 0.028949335 0.19751503 0.15234333 0.04640309 -0.035193592 0.08357741
-0.0031305791 -0.10312192 -0.015662855 -0.11133431

l2.weight f4 [10, 100]
00000000: a238 bbbc edcc 1ebd 92ee 39be 22c1 2fbe
00000010: 833e 3f3d fe78 babe 6774 2a3e 5db5 243e
00000020: 2359 833d 6a77 ac3c 0308 11bd ea90 43bd
00000030: f51e 1b3e 78b8 acbe 5b00 583d 9f4a 153e
00000040: 5732 66bd db61 7dbd b74d febd 9445 3abe
00000050: c93f 59be ad04 793d 2c47 e0bc a2c8 f53d
00000060: 08c6 38be 64f8 fdbd 60e5 fb3d c023 73bd
00000070: 4133 c13d 6c1b ecbe 346d d43d 3822 40be
00000080: d26e 1cbe 9cd5 86be 22eb 4cbe 05f7 da3d
00000090: e853 9a3d eaab 62be 157c 003e 8859 373e
000000a0: 8f77 e93d 82fa 65be 7d78 483e f707 adbc
000000b0: bade d03c b661 a6bd 4e4f 2c3e e745 98bc
000000c0: 2938 b1bd e205 f73d 3d0a 8cbc 8d30 77be
000000d0: cb78 323e 6c25 cebd 09f8 2dbd d88d cb3d
000000e0: 1cec 9e3d 6bfa f03c 282e 69bd 7e60 143e
000000f0: 2063 fe3d 5e41 d3bd 8736 ec3d 9be5 61bc
00000100: abac 213c ffed f3bd b5ac 6a3e 88c7 54be
00000110: 497d 293d fe15 cc3d 4abc 20be 3fbd 733d
00000120: 9450 b9bc 97bc 023d 3c7c 11be 35f3 683d
00000130: 7b08 3abe e8b2 aebd 8530 2bbd 8048 08be
00000140: 6734 81be 361a 5abe 0da8 df3d 7542 273d
00000150: 5545 65be e279 6fbd cc7f febd b921 813d
00000160: 223e 9cbd 1524 063e fbf5 003e 0263 0a3e
00000170: fa99 2cbe 2c11 4f3d 589a 11be a6b6 58b9
00000180: 2af3 06be 74dd 4b3e aa88 a23d 3e47 163e
00000190: 3fb0 c23d a1d0 5dbe 2a0d e53d e116 123e
000001a0: b6ce cb3d 22b3 153e d965 30be 5a85 7ebe
000001b0: 6e70 2f3e 5d83 0f3d bbb5 8fbd dc18 8cbd
000001c0: 7a54 f1bd f1cc f7bd 20b9 0bbe 4911 e1bd
000001d0: 0035 9d3e 9e78 d13d f7f8 92be ab46 c83d
000001e0: ad40 333e 32cd b8bd a092 fabd 5a29 cbbd
000001f0: 49b2 ad3d aa3b 07be d6d2 833d ea23 a43d
00000200: 1af4 ae3c 053b d83d 21db 26be 9ca6 b3ba
00000210: 82f5 11bd d602 df3d 474e 98bd 2fad 733d
00000220: a08e 66be 5891 85bd 1c27 383e 85e4 7bbd
00000230: e161 3b3e f7bc 9bbc 17ef 7e3d 3f9f 233e
00000240: 7ce0 7fbe 82a9 403e 6600 063f 7d17 4ebd
00000250: 7e32 aebd ec96 7bbe 2561 26be a190 ef3d
00000260: 3142 93be 1c74 3ebe d6fc 60bd 5cbe 98be
00000270: 0f2c 67be dd68 fabd 34f4 173d f63b 9d3c
00000280: 6e39 91be e618 0e3e 70b4 4ebe f86d 173e
00000290: 86a7 72be 209f 0f3e 26af 35be 4e21 6bbe
000002a0: 10fe 3f3e 6377 16be 7eb3 91be d41b df3d
000002b0: 52f1 923d 6618 3dbe eec5 4cbe 41b5 ffbd
000002c0: d8f1 5dbe fdbb 183e 6bf6 a83d 6612 60be
000002d0: 44d7 0a3e 5ac1 323e 988e 6e3c 0323 473e
000002e0: 4b7a 293e aad6 63be 414e 0a3e 413e 38bc
000002f0: 550e 5dbc 033a e8bc 6ba6 50be 3a68 8c3e
00000300: 04cf 2d3e 931f 103e 29ab 9c3d a5a9 65be
00000310: 92c1 d2b9 9710 c4bd eee0 6cbe 25d9 4e3d
00000320: fef2 313d 346a 373e 92cf 183e 51bc 12bf
00000330: 6ba1 883e 3abf 44bd 8457 193e 12ed cb3d
00000340: ea0c a73d 221c a4be 0b63 a6bd e855 bb3d
00000350: 46b2 2e3d eefe 463e 8a0e 9bbd 8fb3 1bbd
00000360: 0d30 583d 7181 323e 4fe3 11bd b49d 0ebe
00000370: bf43 853e 8b7e 1e3d a642 a2be 6c91 0cbd
00000380: 5493 033e e610 133e eb3e 5dbd b9e5 bd3c
00000390: bbf2 bb3d 21a4 37be 539d 35be 6af8 51be
000003a0: d397 2fbe 67cd 733e f2af 53be 0ce9 9bbd
000003b0: da00 d93d faba 803e 9a67 ee3d b2f0 4e3e
000003c0: ff26 2e3e a3fb 383e 1027 a2be 3373 793d
000003d0: 955e 3bbe c797 923e 4ab2 b9be 44e7 14bd
000003e0: 2c7f 383d 0911 f7bd 5ab3 c53d daf9 b7be
000003f0: 2725 b43b 8ad2 e7bd 043f a23d d67d 57bd
-0.022854153 -0.03876965 -0.18157414 -0.17163518 0.046690475 -0.36420435 0.16645966 0.1608481
0.06413486 0.021053035 -0.03540803 -0.047745623 0.15148528 -0.33734488 0.052734714 0.14579247
-0.05620035 -0.0618609 -0.12417167 -0.18190604 -0.21215738 0.060795475 -0.027377687 0.12001158
-0.18044293 -0.124008924 0.12299609 -0.059360266 0.09433604 -0.4611467 0.10372391 -0.18763053
-0.1527665 -0.26334846 -0.20011571 0.106916465 0.07535535 -0.22135893 0.12547334 0.17905247
0.11399757 -0.22458842 0.19577213 -0.021121962 0.02549683 -0.08124106 0.16827127 -0.01858802
-0.0865329 0.12061669 -0.017094726 -0.24139614 0.17428891 -0.100657314 -0.042472873 0.09939164
0.07759878 0.029416284 -0.056928784 0.14489934 0.1242125 -0.10315202 0.11533838 -0.013787652
0.009867827 -0.119106285 0.22917445 -0.2077924 0.041379247 0.09965132 -0.15696827 0.05950665
-0.02262143 0.031918135 -0.14207548 0.056872565 -0.18167298 -0.085302174 -0.04179432 -0.13308907
-0.25235292 -0.21299061 0.10920725 0.040834863 -0.2238973 -0.058465846 -0.12426719 0.0630526
-0.076290384 0.13099702 0.12593834 0.13514331 -0.16855612 0.050553486 -0.14219034 -0.00020667407
-0.13178697 0.19908696 0.07936223 0.14675614 0.095062725 -0.21661617 0.111841515 0.1426654
0.09951536 0.14619115 -0.17226352 -0.24855557 0.17132732 0.035037387 -0.07017084 -0.06840679
-0.11783691 -0.12099636 -0.13644838 -0.10989625 0.30704498 0.10228084 -0.2870557 0.09779104
0.1750514 -0.09023513 -0.12234998 -0.099199966 0.08481271 -0.13206354 0.06436698 0.080146626
0.021356631 0.10558132 -0.16294529 -0.001370627 -0.035634525 0.10889213 -0.07436805 0.059491333
-0.22515345 -0.06521863 0.17983669 -0.06149723 0.18299057 -0.019011004 0.062239733 0.15978716
-0.24987978 0.18814662 0.5234436 -0.05031537 -0.08505724 -0.24569291 -0.16247995 0.11697508
-0.28761438 -0.1859898 -0.054928623 -0.29832733 -0.22575401 -0.12227032 0.037098125 0.01919363
-0.28364128 0.13876686 -0.20186019 0.14788043 -0.23696718 0.14025545 -0.17742595 -0.22961923
0.18749261 -0.1469398 -0.28457254 0.1089398 0.071749344 -0.18466339 -0.19997379 -0.12485743
-0.21674287 0.14915462 0.082501255 -0.21882018 0.1355868 0.1745657 0.014560364 0.1944695
0.16550557 -0.22249857 0.13506414 -0.011245311 -0.013492187 -0.028347975 -0.20375983 0.2742327
0.16973501 0.14074545 0.07649834 -0.22427996 -0.00040198542 -0.09573477 -0.23132679 0.050500054
0.043444626 0.17911607 0.14922932 -0.573186 0.26685652 -0.04803393 0.14974791 0.09957327
0.0815676 -0.32052714 -0.0812436 0.09147245 0.042650484 0.19433185 -0.075711325 -0.038013037
0.0527802 0.1743219 -0.03561717 -0.13927346 0.2602825 0.0386949 -0.31691474 -0.034318373
0.1284917 0.14361915 -0.05401508 0.02318083 0.091771565 -0.17933704 -0.17735796 -0.20504919
-0.1714776 0.23808824 -0.20672587 -0.076128095 0.105958655 0.25142652 0.11640854 0.20209005
0.17007063 0.18064742 -0.31670427 0.06090088 -0.18297799 0.28631422 -0.36268836 -0.036353365
0.045043156 -0.12063796 0.09653349 -0.3593281 0.005497593 -0.11319454 0.079221755 -0.05261024

l2.bias f4 [10]
00000000: 9ecc 40be f3d0 9b3c d7f9 16bc fb37 e5bd
00000010: 3011 1a3e 439a d63d 796d 473d 7f3b fb3d
00000020: 1c2a 3abd c222 023e
-0.18828055 0.019020533 -0.00921484 -0.11192318 0.15045619 0.10478642 0.048688386 0.12267207
-0.045450315 0.12708572
